…
tps://localhost:8080/"},"id":"MCIyQUFSwKuk","executionInfo":{"status":"ok","timestamp":1676190817476,"user_tz":-330,"elapsed":1878,"user":{"displayName":"Anish Patil","userId":"07738705134508489266"}},"outputId":"fc17d085-b42f-4570-a683-a563de5ce62c"},"execution_count":null,"outputs":[{"output_type":"stream","name":"stdout","text":["Model: \"sequential\"\n","_________________________________________________________________\n"," Layer (type)                Output Shape              Param #   \n","=================================================================\n"," conv2d (Conv2D)             (None, 254, 254, 16)      448       \n","                                                                 \n"," conv2d_1 (Conv2D)           (None, 252, 252, 16)      2320      \n","                                                                 \n"," conv2d_2 (Conv2D)           (None, 250, 250, 16)      2320      \n","                                                                 \n"," max_pooling2d (MaxPooling2D  (None, 125, 125, 16)     0         \n"," )                                                               \n","                                                                 \n"," conv2d_3 (Conv2D)           (None, 123, 123, 16)      2320      \n","                                                                 \n"," conv2d_4 (Conv2D)           (None, 121, 121, 16)      2320      \n","                                                                 \n"," conv2d_5 (Conv2D)           (None, 119, 119, 16)      2320      \n","                                                                 \n"," max_pooling2d_1 (MaxPooling  (None, 59, 59, 16)       0         \n"," 2D)                                                             \n","                                                                 \n"," flatten (Flatten)           (None, 55696)             0         \n","                                                                 \n"," dense (Dense)               (None, 512)               28516864  \n","                                                                 \n"," dense_1 (Dense)             (None, 512)               262656    \n","                                                                 \n"," dense_2 (Dense)             (None, 3)                 1539      \n","                                                                 \n","=================================================================\n","Total params: 28,793,107\n","Trainable params: 28,793,107\n","Non-trainable params: 0\n","_________________________________________________________________\n","None\n"]}]},{"cell_type":"code","source":["history = model.fit(x=train_generator, validat
…
tps://localhost:8080/"},"id":"bNohWdy17BUL","executionInfo":{"status":"ok","timestamp":1676193625047,"user_tz":-330,"elapsed":1125,"user":{"displayName":"Anish Patil","userId":"07738705134508489266"}},"outputId":"698ec2e5-1bc3-43b8-fcd1-d90eb35c2ef2"},"execution_count":null,"outputs":[{"output_type":"stream","name":"stdout","text":["Model: \"sequential\"\n","_________________________________________________________________\n"," Layer (type)                Output Shape              Param #   \n","=================================================================\n"," conv2d (Conv2D)             (None, 254, 254, 16)      448       \n","                                                                 \n"," conv2d_1 (Conv2D)           (None, 252, 252, 16)      2320      \n","                                                                 \n"," conv2d_2 (Conv2D)           (None, 250, 250, 16)      2320      \n","                                                                 \n"," max_pooling2d (MaxPooling2D  (None, 125, 125, 16)     0         \n"," )                                                               \n","                                                                 \n"," conv2d_3 (Conv2D)           (None, 123, 123, 16)      2320      \n","                                                                 \n"," conv2d_4 (Conv2D)           (None, 121, 121, 16)      2320      \n","                                                                 \n"," conv2d_5 (Conv2D)           (None, 119, 119, 16)      2320      \n","                                                                 \n"," max_pooling2d_1 (MaxPooling  (None, 59, 59, 16)       0         \n"," 2D)                                                             \n","                                                                 \n"," flatten (Flatten)           (None, 55696)             0         \n","                                                                 \n"," dense (Dense)               (None, 512)               28516864  \n","                                                                 \n"," dropout (Dropout)           (None, 512)               0         \n","                                                                 \n"," dense_1 (Dense)             (None, 512)               262656    \n","                                                                 \n"," dense_2 (Dense)             (None, 3)                 1539      \n","                                                                 \n","=================================================================\n","Total params: 28,793,107\n","Trainable params: 28,793,107\n","Non-trainable params: 0\n","_________________________________________________________________\n","None\n"]}]},{"cell_type":"code","source":["history_2 = model_2.fit(x=train_generator, val
…
ttps://localhost:8080/"},"id":"n8Zf3j8xLs3q","executionInfo":{"status":"ok","timestamp":1676197982082,"user_tz":-330,"elapsed":704,"user":{"displayName":"Anish Patil","userId":"07738705134508489266"}},"outputId":"ddbe338d-a3b2-4869-a2cb-810861d4a2af"},"execution_count":null,"outputs":[{"output_type":"stream","name":"stdout","text":["Model: \"sequential\"\n","_________________________________________________________________\n"," Layer (type)                Output Shape              Param #   \n","=================================================================\n"," conv2d (Conv2D)             (None, 254, 254, 16)      448       \n","                                                                 \n"," conv2d_1 (Conv2D)           (None, 252, 252, 16)      2320      \n","                                                                 \n"," conv2d_2 (Conv2D)           (None, 250, 250, 16)      2320      \n","                                                                 \n"," max_pooling2d (MaxPooling2D  (None, 125, 125, 16)     0         \n"," )                                                               \n","                                                                 \n"," conv2d_3 (Conv2D)           (None, 123, 123, 16)      2320      \n","                                                                 \n"," conv2d_4 (Conv2D)           (None, 121, 121, 16)      2320      \n","                                                                 \n"," conv2d_5 (Conv2D)           (None, 119, 119, 16)      2320      \n","                                                                 \n"," max_pooling2d_1 (MaxPooling  (None, 59, 59, 16)       0         \n"," 2D)                                                             \n","                                                                 \n"," flatten (Flatten)           (None, 55696)             0         \n","                                                                 \n"," dense (Dense)               (None, 512)               28516864  \n","                                                                 \n"," dropout (Dropout)           (None, 512)               0         \n","                                                                 \n"," dense_1 (Dense)             (None, 512)               262656    \n","                                                                 \n"," dropout_1 (Dropout)         (None, 512)               0         \n","                                                                 \n"," dense_2 (Dense)             (None, 512)               262656    \n","                                                                 \n"," dense_3 (Dense)             (None, 3)                 1539      \n","                                                                 \n","=================================================================\n","Total params: 29,055,763\n","Trainable params: 29,055,763\n","Non-trainable params: 0\n","_________________________________________________________________\n","None\n"]}]},{"cell_type":"code","source":["history_3 = model_3.fit(x=train_generator, val
…
